weights/ckpt.pth (torch, 20511 bytes, 6 tensors)

fc1.weight f4 [64, 2]
00000000: fbb9 2abd f70b a33f de16 f43c 554b 883e
00000010: 7599 8b3f 5603 b63f f16f 113f 37ff 9b3e
00000020: 3a0c 4cbd f1ad 643e 58ce 83be 706b 6f3f
00000030: cd97 91bb b070 8dbd fdc7 2e3f 1e32 dbbf
00000040: dace ddbe 47cd bf3f aa96 35bf 03f7 e9be
00000050: 6b50 c03d 9a01 2e3e f0f5 07bd 1d53 53be
00000060: 4a58 e73e ac75 ac3f a115 d03d 5b2f 94bf
00000070: 921a 623c a0b6 5cbd f66b 043d 6c7f 083e
00000080: 8783 ba3c e03d 833c c9f6 18bd 2db4 7ebf
00000090: 980a 9c3f 49f7 193f 57a9 f33a e3d0 04be
000000a0: b98c 5d3e 8c89 89bf 174c c73d a650 68bf
000000b0: fd39 af3d ae65 9a3e f971 483b 337f 1ebb
000000c0: 8b4b 993f d0c5 c03f 29f6 3c3b e5e5 fdbb
000000d0: 5739 58be dc08 b4ba 9ad2 793a a859 b4bc
000000e0: 8233 34be 2c24 42bf 4759 223f 75f6 6d3f
000000f0: af35 c03e 9900 163e 650e 7d3c 7ee1 843c
00000100: 8b15 dd3e 9475 133d 388a eb3e c5c5 b43f
00000110: 1a6d f1be b6e2 ef3f 1221 92bf 9a2e 283f
00000120: 067d 3ebd 73aa ddbe 18ff ddbd 367a 8a3d
00000130: 75b2 e33e c287 2f3f 10cd 483f 4db6 a3be
00000140: 3dc2 df3e 1071 a63f 7590 abbd fc1a 853f
00000150: aef3 6f3d 8381 123e 0482 f7bd ca73 253f
00000160: 0552 9b3e c739 c2bf db4f 0e3f 567b 5c3f
00000170: ca66 3d3f 7b2f a3be 8ea5 a5ba e544 b83d
00000180: 00fc 9bbf 1db3 363f c765 313f 9dda a0be
00000190: 9600 79bd 7208 113f 023e 7e3f 8a25 a23f
000001a0: 0f9c 693f 1528 aebf 8797 97bd 184d 2fbe
000001b0: eedc 6a3f 846e 163f faaf 02bf 5b36 ef3f
000001c0: d492 ecbd 519b ba3e 0650 bfbe e565 a53f
000001d0: 4097 bdbe 5d2a c23f 939d 51be f8c9 d8be
000001e0: db06 e2be 4a14 793f 27fa 3b3f e60b 98be
000001f0: 9ee1 8dbd 7cd2 a03d df0e 5ebd bee8 3fbd
-0.04168127 1.2738026 0.02979606 0.26619974 1.0906206 1.4219768 0.56811434 0.3046815
-0.049816348 0.22331978 -0.25743365 0.9352331 -0.004443145 -0.06906259 0.6827391 -1.712467
-0.43321878 1.4984521 -0.7093302 -0.45696267 0.093903385 0.16992798 -0.03319353 -0.20637174
0.45184547 1.3473411 0.101603754 -1.1576952 0.01380028 -0.053885102 0.032329522 0.13329858
0.022767795 0.016020715 -0.037344728 -0.99493676 1.2190733 0.6014295 0.0018589896 -0.12970309
0.21635713 -1.0745101 0.0973131 -0.9074806 0.08555982 0.301557 0.003058551 -0.0024184703
1.1976179 1.5060368 0.0028833246 -0.007748353 -0.21115623 -0.001373555 0.0009529978 -0.022015408
-0.17597774 -0.75836444 0.63417476 0.9295419 0.37540957 0.14648665 0.015445326 0.016220804
0.43180498 0.036000803 0.4600389 1.4122854 -0.4715355 1.8741062 -1.1416342 0.6569611
-0.04650595 -0.43294105 -0.10839671 0.06761591 0.4447209 0.68566525 0.784379 -0.31975022
0.4370288 1.3003254 -0.08377162 1.039886 0.058582 0.14307217 -0.120853454 0.64629805
0.30336013 -1.5173882 0.555906 0.86125696 0.7398497 -0.31872162 -0.001263784 0.089975156
-1.2186279 0.71367055 0.69295925 -0.3141679 -0.060791574 0.5665351 0.99313366 1.2667706
0.9125375 -1.3605982 -0.074019484 -0.17119253 0.9174336 0.58762383 -0.5104977 1.8688463
-0.11551443 0.36446622 -0.3736574 1.2921721 -0.37029457 1.5169178 -0.20470266 -0.4234159
-0.44145855 0.97296584 0.7342858 -0.29696578 -0.06927799 0.07852647 -0.0542134 -0.04685282

fc1.bias f4 [64]
00000000: 2bd0 f6bd bf6d f8bf e1e2 1d3f 46c9 7540
00000010: f60a 78bf b695 cebf c081 e4be e0b0 13c0
00000020: a12d 1dc0 eff6 17bf 0b37 4ebf e2b7 99bf
00000030: e594 f3bf 7488 62c0 334d 1cbf 35d3 1ac0
00000040: 59ab 18bf bf26 4dc0 1d98 69c0 cc7d f1bf
00000050: 2390 5bc0 f9f4 5cc0 f12a 7cbf 8635 aebe
00000060: 8b43 293f 6c38 dbbe b7e0 cfbf b133 7bbe
00000070: f083 5bc0 d362 fa3e d74d 1140 a504 0cbf
00000080: b5f9 d43e 81db 03c0 e87e 3ac0 288b 3bc0
00000090: 8808 3bc0 9627 93bf 13e5 4640 8bc0 62c0
000000a0: f648 f3bf 385b 07c0 ce84 6b40 d1e6 dbbf
000000b0: 7cfd 70c0 28d6 7840 bf40 53c0 d98a f4be
000000c0: 2c21 45c0 7e84 50c0 59d6 9dbf f003 ee3e
000000d0: c2f1 36c0 102c 26c0 cace 4fc0 cb43 39c0
000000e0: 7eab c4bf 5032 08c0 2bb5 1dc0 0a01 26c0
000000f0: 28d8 54c0 e71e 53c0 e9ec 9abf 70a8 d9bf
-0.12051424 -1.9408492 0.61674315 3.8404098 -0.96891725 -1.6139438 -0.4463024 -2.3076706
-2.45591 -0.59361166 -0.8055274 -1.2009242 -1.9029814 -3.5395784 -0.61055297 -2.419141
-0.59636456 -3.2054899 -3.6499093 -1.8866515 -3.4306724 -3.452452 -0.98503023 -0.3402521
0.6611869 -0.42816484 -1.6240453 -0.24531437 -3.4299278 0.48903522 2.270376 -0.54694587
0.4159676 -2.0602725 -2.9139957 -2.9303684 -2.9223957 -1.1496456 3.1077316 -3.543002
-1.9006641 -2.1149426 3.6799808 -1.7179815 -3.7654715 3.888071 -3.3008268 -0.47762182
-3.0801497 -3.2580867 -1.2331039 0.4648738 -2.8585057 -2.5964394 -3.2469964 -2.8947628
-1.5364835 -2.1280708 -2.4641826 -2.5938134 -3.3256931 -3.2987611 -1.2103549 -1.7004528

fc2.weight f4 [64, 64]
00000000: 3062 bcbf bbf1 8dbd d232 12c0 dd64 8ebf
00000010: 938b 84be 65c5 91bf 8ba5 dc3c f0dd 7a3f
00000020: b0be 27bf bf1d afbe 3e9d 793d f83e 2a3e
00000030: c3f1 0fbf 7235 8a3f 022f 94bd 9d7e a33e
00000040: 8619 abbd 3b77 763e 0cf0 7bbf 3677 3b3e
00000050: a6ad 6a3f 31e0 383f 3168 773e 49bf debd
00000060: d469 2dc0 1fe2 313c 16dc f2be 0679 ea3c
00000070: 5e9a d7bc 45cb adbf fa5a 82be 31fa 4d3e
00000080: 7906 84bd b39e fcbe 43f1 25bf 6544 a6bf
00000090: b190 1fbe 3308 13bf 9f66 96bf da53 f83e
000000a0: 1a14 0dbf 88e8 a4be 688d 20bf 9a59 25bf
000000b0: e910 d43f 185b 0ac0 37a7 153f 6308 7f3e
000000c0: 880d cdbf eb15 dc3e 37a6 02bf 85ce 07c0
000000d0: 2975 633f 0786 d1bd 8ef3 90bf 6711 59bf
000000e0: e70f 92be e6ff cabf 5a72 98bf 9e09 293d
000000f0: dff6 2fbf 7c97 fd3e 06fe 0abd b668 013e
00000100: 4ef2 a7bf 0da5 f53e 6248 b13e c43f 57bf
00000110: 8b8c e73d 7229 65bf 31ad 4cbe bfc9 b63f
00000120: 1d4d d2bf f472 7e3e 9346 f43c 78be 28bf
00000130: e640 493f 532b 07c0 fb16 9b3e b173 343f
00000140: 0481 853e 7a20 ccbf aa3a bd3f 5986 143f
00000150: d093 a8bf 89a1 32c0 3ceb 953e f8c0 1a3e
00000160: c647 de3e 9e2f 173e 4209 ca3e 204c b4be
00000170: 1665 89bf 4476 9b3e 3ba9 dabf 7f1e 85bd
00000180: 2b7a a0bd f2b4 493f efcc aebf 1c75 083f
00000190: 71ee 9fbe 3618 3a3c 40a2 a0bf a353 2640
000001a0: 88b3 483f fe5c 0d3f 4981 86bf ecfb 02bd
000001b0: aca4 62c0 1b52 2dbf 6d14 2540 0b7b 01bd
000001c0: 63e0 863e 4135 fc3f cda8 dc3e 1e6e 9e3e
000001d0: 7c18 3e40 3b1c cfbe 06e8 b83f 0d72 d6bf
000001e0: baa2 f33e 9b9c aebf c2dc 38bf 8fda d6bf
000001f0: d5b8 773e aff7 2040 4196 043f 93e7 3c3f
00000200: be4d 96bd f750 373e 1266 80be f1a8 82bf
00000210: 9460 babe 326b d9bd 3f1d c0bd a702 ca3e
00000220: 6c72 793f 5464 063d 6482 603d 736d a7be
00000230: e598 903f 8dd0 1e3f bd8d 08be 4734 21bd
00000240: 6392 6bbe b01b edbc 824a 3bbf 573d 91be
00000250: 7a74 823c a3f3 29be 7320 413f 538b 863e
00000260: a23c 68be a6dd 9ebe 80fe d1be cd2f 94be
00000270: 50c7 c4be 2b21 a93d e81a 0dbf 7a10 643e
00000280: 7d52 acbe 1b26 9b3f 21c1 613f 2d40 afbf
00000290: 003d 51bf 1082 c73e 14d0 60bf f8da adbe
000002a0: eb36 933f dd3f 45be 48cb 19bf 3abd 33be
000002b0: 95da 5c3f ed92 68bf da58 99be f201 90be
000002c0: ed03 abbf e325 bbbe ce5c 90be 7ee4 bc3a
000002d0: be1e fa3a 4f18 3fbd d3b2 e2be 5270 403f
000002e0: 7dbb 30bf b147 40be 48fd 443e 2817 3bbf
000002f0: aeda 3c3d 7d47 c2be 0f7e f13e a68e 7dbd
00000300: 4a16 e73c b915 ab3d 5168 95bd e892 a4be
00000310: 560b b3bd e16e 86bb e36f 7cbe 8522 0fbc
00000320: a6e2 563e e061 473d 74de e63d 0ff5 adbc
00000330: eebf d83d aaf8 273e e49e 46be 6442 c3bc
00000340: 8ceb 60bd bdec 663e b8b2 e6bd 63c5 063d
00000350: 73c1 8d3c 7879 ab3b 3060 123e 713d e4bd
00000360: b0aa 05bd 0f5e 07be 864a ce3e 4ff8 55bd
00000370: 722b fa3d 6066 703d deff 34bd 5b66 943d
00000380: 39a5 4cbe a7ce e63c f33a 573d 7389 16be
00000390: 3d18 503d 766d 55be c2eb 92bc a884 3b3d
000003a0: 3a6d a63e fc14 febe 473b 8ebe 647f 43be
000003b0: 416d 733e 8c32 97bd 8eae 51bd a596 43be
000003c0: cd20 3f3c 7e50 5cbd dfcb 84be 7d38 c63d
000003d0: beaa 383d df8f 9d3c c7a1 0bbe 9c22 7a3e
000003e0: 5d9c 62bd 55c3 8dbd 3c9b 03bc b071 4abc
000003f0: ef96 f73e 0bce 42be 5355 133e 3822 aabd
-1.4717464 -0.06930872 -2.2843518 -1.1124531 -0.25887737 -1.1388365 0.026934406 0.979949
-0.6552534 -0.34202382 0.060940973 0.16625583 -0.56228274 1.079756 -0.072355285 0.31932536
-0.083544776 0.2406892 -0.9841316 0.18307194 0.91671216 0.7221709 0.2416084 -0.108763285
-2.7095842 0.010857134 -0.47433537 0.028622162 -0.026318725 -1.3577658 -0.25460035 0.20114972
-0.06446547 -0.49339828 -0.6482126 -1.2989622 -0.15582539 -0.57434386 -1.1750067 0.48501474
-0.551088 -0.32208657 -0.6271577 -0.64589846 1.656766 -2.16181 0.58458275 0.24905543
-1.6019754 0.42985472 -0.51034874 -2.12198 0.8885065 -0.10230642 -1.1324327 -0.8479218
-0.28527758 -1.5859344 -1.1909897 0.041268937 -0.6873607 0.49529636 -0.033933662 0.126376
-1.312082 0.47977486 0.34625536 -0.84081674 0.11306103 -0.89516366 -0.19987942 1.4280318
-1.6429783 0.24848539 0.029818809 -0.6591563 0.7861465 -2.1120193 0.3029097 0.7048903
0.26074994 -1.5947411 1.4783528 0.580175 -1.3170109 -2.7911093 0.29281032 0.15112674
0.43414134 0.14764258 0.39460188 -0.3521433 -1.0733974 0.30363667 -1.7082895 -0.06499957
-0.07835802 0.78791726 -1.3656291 0.53303695 -0.31236604 0.011358311 -1.2549515 2.5988548
0.7839894 0.5522002 -1.0508205 -0.031978533 -3.5413008 -0.6770341 2.5793717 -0.031611484
0.26343068 1.9703752 0.43097535 0.30943388 2.9702444 -0.40451226 1.4445808 -1.6753556
0.47585088 -1.3641542 -0.7221185 -1.6785449 0.24191602 2.5151174 0.5179177 0.73790854
-0.07339047 0.1790198 -0.25077873 -1.0207807 -0.36401808 -0.10616149 -0.09380578 0.3945515
0.9744022 0.032810524 0.05481185 -0.3270069 1.129666 0.62036973 -0.13335319 -0.039356496
-0.23005061 -0.028943866 -0.73160565 -0.2836711 0.015924681 -0.16596846 0.7544014 0.2627817
-0.2267938 -0.3102848 -0.4101448 -0.2894272 -0.38433313 0.082582794 -0.5511918 0.2227191
-0.33656684 1.2121004 0.88185316 -1.369146 -0.81733704 0.38966417 -0.878175 -0.33956122
1.1501135 -0.19262643 -0.6007581 -0.17552653 0.8627103 -0.9084919 -0.299506 -0.28126484
-1.3360573 -0.36552343 -0.28195804 0.0014411358 0.0019082648 -0.04665404 -0.44277057 0.7517139
-0.69036084 -0.18777348 0.19237244 -0.7308221 0.046106987 -0.37945166 0.47166488 -0.06190362
0.02820887 0.08353753 -0.072952874 -0.3214333 -0.087423965 -0.0041025733 -0.24652056 -0.008736257
0.20984897 0.048677325 0.11272898 -0.021235017 0.10583483 0.16403452 -0.1939655 -0.023835368
-0.054912135 0.22551246 -0.11264557 0.032903086 0.017304158 0.005232986 0.14294505 -0.111445315
-0.032633483 -0.13219474 0.40291232 -0.05223876 0.12215318 0.058691382 -0.044189326 0.07246085
-0.19984902 0.028174711 0.052546453 -0.1470087 0.050804365 -0.20842537 -0.017934684 0.045780808
0.32505208 -0.49625385 -0.277796 -0.19091564 0.23772146 -0.07382688 -0.05119186 -0.19100435
0.011665535 -0.0537877 -0.2593679 0.09678743 0.045084707 0.019233642 -0.13635932 0.24427265
-0.0553249 -0.06922022 -0.008032616 -0.012356207 0.4835734 -0.19023912 0.14388017 -0.08307308

fc2.bias f4 [64]
00000000: 32b8 d2bf 81c9 26c0 be97 b7bf eda4 0fbf
00000010: 3c2c e9bd 6c9a 4ebf d843 8bbf e828 92bf
00000020: c751 fcbf 4726 20bf 1616 6ebf 1fe3 1a3f
00000030: e30c 0640 6547 2cbf 9f26 ecbf 8850 8dbf
00000040: 9084 b93e 2987 aabe 50b4 2dbf 6e32 83be
00000050: b8fa e1bf 5bc1 25be 2de7 b5bf e3ff d2bf
00000060: f8bd 4bbf f13e c6bf a845 fabf 088f fabf
00000070: bd1d 38c0 9042 dabe 8c81 173e cc4e 0dbe
00000080: 2a12 9fbd ff9e 02c0 0ef5 7bbf 1538 383f
00000090: b8f1 40bf ea8a e2bf 2cdb 51be 236c d9be
000000a0: 5cd2 81bf a826 0fbf 9c3c 59bf 7764 27bf
000000b0: e5f2 c63e 03ad c13e 1254 1bbf 8898 e0bf
000000c0: 9594 66bf ce15 163e 25d4 8ebf 1a55 bd3e
000000d0: f135 2dbf e0ee febe f429 14c0 c1c3 94bf
000000e0: adf2 e7bf edaa babe f00b 4440 c394 98be
000000f0: 5039 2dbe 459b e4bc 9edf 3e3f c577 adbe
-1.6462462 -2.6060488 -1.4343183 -0.5611103 -0.1138539 -0.8070438 -1.0880079 -1.1418734
-1.9712456 -0.62558407 -0.9300245 0.6050281 2.0945365 -0.6729644 -1.8449286 -1.1040201
0.3623395 -0.33306244 -0.6785326 -0.25624412 -1.7654638 -0.1618704 -1.4211174 -1.648434
-0.79586744 -1.5487958 -1.9552507 -1.95749 -2.876815 -0.42628908 0.14795512 -0.1379959
-0.077671364 -2.0409544 -0.984208 0.71960574 -0.75368834 -1.7698643 -0.20493764 -0.42465314
-1.0142322 -0.5591836 -0.8485811 -0.6538767 0.3885719 0.3782731 -0.60675156 -1.7546549
-0.9007047 0.14656755 -1.1158491 0.3697899 -0.67660433 -0.49791622 -2.3150606 -1.1622239
-1.8120934 -0.3645853 3.0632286 -0.29800996 -0.16916394 -0.02790607 0.7455996 -0.3388044

out.weight f4 [3, 64]
00000000: c29b 26bf 0738 cfbf b230 abbe 6d4e fd3d
00000010: 843b acbf 7d88 bf3c 9cf1 f7be 58b0 d33d
00000020: 7ede f1be 3e91 833d 9102 bdbe 6a3a 0cbc
00000030: fdb1 48c0 2f7b 433b 5241 1dbf 7183 10bf
00000040: cf3e b73f f5f8 e0bd 7fc5 2abe 805e 6e3d
00000050: 5244 1fbf dd96 02be 431f 053d 2ade 743d
00000060: c68a 463d cb5f 4dbf 1a2d 0bbf dbc9 26bf
00000070: f6bc b23f bd73 cebb 98a5 a5bf 5f60 e73d
00000080: ce6b ea3d 4c06 ebbe 6389 36bf de2d 293d
00000090: 43ac e2be db34 2cbf 3c11 c83d 26ea 8dbd
000000a0: 9d5d 87bb bd96 cb3b e309 8fbe 81e1 eabe
000000b0: 36da e3be c5bb 46be b9ab 0c3d 2465 2fbf
000000c0: 4834 eb3d d867 ad3d e0e6 8c3d 5ae0 7b3d
000000d0: 9b3b 9cbd c8b6 b23c 5a51 a53f 6a6b ec3d
000000e0: 88d4 03bf 40cd f63d c6d6 67bf 8d44 a1bd
000000f0: cd04 c2bf dbba 46bc 62d8 c3bd 5123 49bf
00000100: 5cc5 61bf 72e2 593f afbd adbe e1c0 c43d
00000110: 33cc 743f 3274 a73d 4a0c c93d bd07 97bd
00000120: 5478 9cbe 078c bd3d 36a9 b9be beed 63be
00000130: 1a53 4e40 0d54 bc3c 50c8 10bf 1be2 2abf
00000140: 3e06 c3bf 9e53 30be aae1 18be 6ba3 4a3d
00000150: a469 93be fd78 9f3d 1b9b 0f3f a5a7 4cbf
00000160: de13 0e3e d601 10bd 95aa d4bf 17c7 56bf
00000170: 2561 7cbf 464a 57bc a6bd 8d3f 34ce 33bd
00000180: 278f dd3d ba11 1fbf 018b 09bd 2b29 243d
00000190: 9fee 44be f209 2dbf cd15 41bd 8460 0abd
000001a0: 468f 00bc 4eef d6bd 4b38 033e 84a4 2a3e
000001b0: 5f38 a53e 1d33 473d 1ebf 883d 30ae 71bf
000001c0: 55d0 a53c e0ba 37bf 4775 93bd 5423 0abe
000001d0: 1edc 313f 41fd e83c 3ab2 9cbf e475 22bc
000001e0: 75cb 23bf dae6 85bc d11b 943f b50a c1bd
000001f0: 5adb a83f 5f4e 57bf 807f 6ebd 7dc8 e73e
00000200: 90b3 813f f7ec 0bbf 633d 893f 0604 ccbc
00000210: e658 5abe e115 b13e 0486 92bd ff07 c6bd
00000220: af64 083f b604 e93d e216 033f 8d37 4b3e
00000230: 2c09 acbf 385c 9c3d aef7 6e3f 61f9 673f
00000240: 06a6 13be b33b a33d adc0 8e3e 7bdf 223e
00000250: cf69 223f 27e3 a73d a8ea 46bf 7e20 153f
00000260: ec0b 833e 81fb 923e 8656 0540 8e54 6e3f
00000270: c337 32bf 389e 833e 1a02 9ebd 0bd9 103e
00000280: 9cb3 bd3e 9603 803f e25c 7f3e 7fd6 45be
00000290: 3174 f13e af5c 553f c0a0 0a3f c499 853e
000002a0: b941 c83e c9a0 833e 3b12 e03e b66e efbe
000002b0: c0e0 05be a02f 633e 1913 b6be a7cf 973f
000002c0: 9cfc 18be 441a 933f 4128 3e3e 4f4d be3d
000002d0: 21c6 c0be 6f4c 76bb 1f0c 7c3f edcd f53e
000002e0: 559b 6b3f c4ea d1bc 006c 74bf c9a3 163f
000002f0: e14f 43bf b74c 9a3f bb88 553e 7d36 a6be
-0.6508142 -1.6188973 -0.3343559 0.12368474 -1.3455663 0.023380512 -0.4842652 0.10336369
-0.4724006 0.06424187 -0.3691602 -0.008558849 -3.1358635 0.0029828062 -0.61427796 -0.56450564
1.4316043 -0.10984985 -0.16676901 0.05819559 -0.62213624 -0.12752862 0.032500517 0.059782185
0.04847219 -0.80224293 -0.54365695 -0.65151757 1.3963916 -0.006300418 -1.294116 0.11297678
0.11446343 -0.45903242 -0.71303385 0.041303508 -0.4427205 -0.6726815 0.09768912 -0.06929426
-0.0041310326 0.0062130378 -0.2793723 -0.4587517 -0.4450242 -0.19407566 0.034343455 -0.68513703
0.11484581 0.08467072 0.068799734 0.061493255 -0.07628556 0.021815673 1.2915452 0.11543925
-0.5149617 0.12050867 -0.90562093 -0.07874403 -1.5157715 -0.012129511 -0.09562756 -0.78569514
-0.8819177 0.85111153 -0.3393378 0.09607101 0.95624083 0.08176459 0.09816797 -0.07374523
-0.30560553 0.09255224 -0.3626191 -0.2225866 3.223822 0.022989297 -0.5655565 -0.6675126
-1.523628 -0.17219397 -0.14929834 0.049472254 -0.28791535 0.077867486 0.5609605 -0.79943305
0.13874766 -0.035158 -1.6614558 -0.83897537 -0.9858573 -0.013140267 1.1073501 -0.043897822
0.1081832 -0.62136424 -0.03357983 0.040078323 -0.19231652 -0.675933 -0.04713993 -0.03378345
-0.007846659 -0.104948625 0.12814443 0.1666432 0.3226957 0.04863273 0.06677078 -0.94406414
0.020240942 -0.71769524 -0.07200103 -0.13490039 0.694765 0.028441073 -1.224189 -0.009915803
-0.63982326 -0.01634543 1.1570989 -0.0942587 1.3191941 -0.8410396 -0.058227062 0.45270148
1.0132923 -0.54658455 1.0721859 -0.024904262 -0.21322975 0.34587005 -0.07154468 -0.09669494
0.5327863 0.11377852 0.5120679 0.1984541 -1.3440299 0.07634777 0.9334668 0.90614897
-0.14418802 0.07970371 0.27881375 0.15905564 0.634427 0.08197623 -0.7770181 0.58252704
0.25595033 0.28707507 2.083406 0.9309777 -0.69616336 0.2570665 -0.077152446 0.14145295
0.37051094 1.0001094 0.24937776 -0.19320105 0.4715896 0.8334455 0.54151535 0.26093876
0.39112642 0.25708607 0.4376391 -0.46764153 -0.13074017 0.22186136 -0.35561445 1.1860245
-0.14940113 1.1492391 0.18570043 0.09292089 -0.3765116 -0.003758218 0.98455995 0.4800867
0.9203389 -0.02562464 -0.95477295 0.58843666 -0.7629376 1.2054662 0.2085294 -0.32463446

out.bias f4 [3]
00000000: f3bd 93bf bd8d 0240 0f96 f0bf
-1.1542343 2.039901 -1.8795794
