weights/ckpt.pth (torch, 20511 bytes, 6 tensors)

fc1.weight f4 [64, 2]
00000000: df22 f2bd de30 b03e cd83 86bf 461d 223f
00000010: 7c5b 843d 71c0 123e 446d e23e 6de9 4dbf
00000020: 6922 2dbd b8b5 bc3d e6c0 a8be 9adc 963f
00000030: 6e36 88bc 028a 943e 4d5f c4bd ff93 9f3f
00000040: ac36 853b 8b02 be3d 8ec4 a73e ad9d 233f
00000050: fdfc 613f 822c 423f c660 6f3f 1d57 aa3f
00000060: a582 0b3c 0a3e 3bbf f571 3dbf 70b0 423f
00000070: 8e05 3d3d 364f 5a3f 96e1 9ebe 69c1 50bf
00000080: b5bc 023e e8f8 863e 6d11 22bf 7f51 603f
00000090: 790f 45bc 2acb eb3d 9bc5 26bd 7d12 653e
000000a0: b09a 9c3e e7aa 2b3e 071b 953c 25bc bf3f
000000b0: 737d cabd 7854 8abd 6fa5 463e 2be0 323f
000000c0: 0efe 7b3f 7022 b13f 1345 cb3d 76cb 84bd
000000d0: 5d87 8f3b 57b5 323c 2218 abbe 88df 7ebf
000000e0: 19a7 973c f5e9 2abd 86e3 7bbf 8e7f 993f
000000f0: 87a7 7fbe 3b45 b73d 3830 52bc 3d84 2fbf
00000100: 3272 9abe fa61 8b3f 74ca 8dbe 459f f73c
00000110: 61be 36bd 13b9 1b3e 3705 a9bc 82f7 913c
00000120: fca2 5e3d e2e2 0abe f599 993e bff2 563f
00000130: dd3e e5be 758d da3e 6c5c d03c 738c 8e3e
00000140: 8d86 393d 352c e63e e34d e73b 6e76 42bf
00000150: 9fa3 913e e256 173f 412f 95bd 38e2 ec3d
00000160: faac 413e 660d d23f 7b15 273e 1c3c 823e
00000170: a8ac 8cbe 432f 823f a754 ccbc 4b05 423e
00000180: 4589 913d b63a e13b c988 1dbe 3f69 7e3c
00000190: 3be0 113f 75a4 87be 6c07 203f 63d9 6cbe
000001a0: 2bfe 073d 9d12 6abc e91c ab3c 96b9 e63b
000001b0: 9601 00bc 9b67 133e 7534 b43d d58d f33e
000001c0: efa6 5a3f 26ae 973e 3013 3b3f 4b23 a5be
000001d0: 56b9 6ebf 9fac 16be 4b30 073f 5f09 b0bf
000001e0: f51e 333e c44b 2abf 0528 a73c 535e 03bf
000001f0: 28ae 673f d72d 423f 0222 643f a027 96bf
-0.118230574 0.34412283 -1.0508972 0.6332592 0.06462762 0.14331223 0.44223988 -0.80434304
-0.042269144 0.092143476 -0.3295967 1.1786072 -0.016627517 0.29011542 -0.0958849 1.246704
0.0040653553 0.09277829 0.32767147 0.6391247 0.88276654 0.75849164 0.9350704 1.3307835
0.008515035 -0.7314154 -0.7400201 0.7605047 0.046147875 0.85277116 -0.31031483 -0.8154512
0.12767299 0.26361775 -0.6330784 0.87624353 -0.012027615 0.1151336 -0.040715795 0.22370334
0.30586767 0.16764413 0.018201364 1.4979292 -0.09887209 -0.067543924 0.19399045 0.69873303
0.9843453 1.3838634 0.09925284 -0.064841196 0.00438015 0.010907493 -0.3341685 -0.9955983
0.018512296 -0.041727025 -0.9839405 1.1992052 -0.2496625 0.089487515 -0.012828879 -0.68561155
-0.3016525 1.0889275 -0.27693522 0.030227313 -0.044615153 0.15207319 -0.02063237 0.017818216
0.054354653 -0.13563111 0.30000272 0.8396415 -0.44774523 0.42686048 0.025434695 0.2784153
0.045294333 0.44955602 0.0070588454 -0.7596196 0.28445145 0.5911695 -0.072844036 0.11566585
0.18913642 1.6410339 0.16316788 0.25436485 -0.27475476 1.0170673 -0.02494271 0.18947332
0.0710626 0.006873454 -0.1538421 0.015528022 0.56982774 -0.26492658 0.62511325 -0.23129801
0.033201378 -0.014286664 0.020887809 0.0070411665 -0.007812878 0.14394991 0.08799068 0.47569147
0.8541097 0.29625052 0.7307615 -0.3225349 -0.9325155 -0.14714287 0.52808064 -1.375286
0.17492278 -0.6652186 0.020404825 -0.513158 0.90500116 0.75851196 0.8911439 -1.1730843

fc1.bias f4 [64]
00000000: 7276 82bf cf22 26c0 c456 da3f a947 eebf
00000010: 4a0e 18bf 2227 04c0 1801 98bf 807b 8cbf
00000020: 7679 8fbe 0a19 2140 9d77 3dc0 1019 153f
00000030: 3676 22c0 477d 1fc0 5398 aabe c9d4 f8bf
00000040: c73a bcbf 2443 91bf ca57 26bf 8116 ef3e
00000050: f05d c43d 0255 3fbd fd61 05bf 1a2c 87bf
00000060: ee39 2a3f 7b26 09c0 62f7 b3bd b3d5 fabf
00000070: 9d77 95bf f734 ffbd bb9f 0440 9763 1fc0
00000080: 0f51 f7bf 0cb8 b83f c44c 44bf 3e35 acbe
00000090: 6e2e 08c0 75ec b3bf 0b40 33c0 e969 77bf
000000a0: ebde a7bf 6424 26c0 122d 1940 981b 66bf
000000b0: 589b b3bf ed0b 4240 8352 efbf 437e 65bf
000000c0: 5eb4 d4bf f188 58bf f9d6 35c0 3114 38c0
000000d0: c6a2 83bf 8f8d 24bf ba8a abbe 748e 85bf
000000e0: 9bbb fa3e 8c15 5dc0 5ed8 54c0 c526 b8bf
000000f0: 49a2 0cc0 2aaf edbf 169c 3ec0 c9fb 33c0
-1.0192397 -2.5958745 1.7057729 -1.8615619 -0.59396803 -2.0648885 -1.1875334 -1.0975189
-0.28022355 2.5171533 -2.9604256 0.5824137 -2.538465 -2.4920213 -0.3331934 -1.9439937
-1.4705437 -1.1348615 -0.64977705 0.46696857 0.0958823 -0.04671193 -0.52102643 -1.0560334
0.66494644 -2.1429737 -0.08787419 -1.9596466 -1.1677128 -0.12461274 2.0722492 -2.4904535
-1.9321612 1.4431167 -0.76679635 -0.3363437 -2.1278338 -1.4056536 -2.8007839 -0.9664598
-1.3114904 -2.595971 2.3933759 -0.89885855 -1.4031782 3.031978 -1.8697056 -0.89645785
-1.6617544 -0.84583956 -2.841246 -2.8762324 -1.028405 -0.642785 -0.33504277 -1.0434098
0.48971257 -3.45444 -3.325706 -1.4386832 -2.197405 -1.8569081 -2.9782767 -2.8122427

fc2.weight f4 [64, 64]
00000000: f1e1 8b3d d075 963f a272 50bf 82fa a6bf
00000010: f1f6 483e 4b2d 3c3f 9ba7 d33e ac7c b23e
00000020: 8120 83be 7616 a5bf 5da8 013e 4051 923f
00000030: c87b 8f3e 7187 933f f4b0 55be 4c4c fd3c
00000040: be8b 3b3f e42c 2b3f d330 9f3d 9215 a8be
00000050: fc73 0abf b0e9 33be 8d7d 8a3e d948 d03e
00000060: 3885 7e3f 9afa f53c 8d50 813d d699 94be
00000070: 54e0 ab3e 6e20 ff3e c181 3abf 8bed 843f
00000080: 3676 583f 358e 12bf 3c45 f03d 5cda dc3d
00000090: ccb9 dabe e70e 183f 7778 f63f 4a83 8cbe
000000a0: 98d8 363e 55e4 0b3f 53b4 fdbf 45bc 29be
000000b0: afa1 7c3f 22c0 37c0 9d3b 133f 83ea 7b3c
000000c0: cf61 6bbd 66e0 033e 003a 15be a19a 2abf
000000d0: 4fac 103e 7538 c8bc 29c4 8dbe 37c2 743e
000000e0: a9e0 d5be 6017 2d3d b60e 9a3f f43f 33c0
000000f0: 09bc 9fbf e943 d23e 4197 e93d e1c8 1abf
00000100: f170 6ebf c2d1 b2bf eab5 82be 037e bd3e
00000110: 057e 8b3d 4804 fdbe 6132 023e 07b5 14bf
00000120: 3913 25bd 0542 9ebf 09fa 9abf cb68 44c0
00000130: 329e f63e 74e7 89bf 9d57 60bf 8ab0 043f
00000140: 1202 d1be db11 98bf a4de febc 92ef a63c
00000150: 2d45 49be 88b3 44bf f446 a43e 38d7 92bf
00000160: 3f39 4bc0 c364 3c3c 1e11 543d 0b6b 443f
00000170: 5299 0bbc 93a8 77c0 2719 cabe d62f 5c3f
00000180: b6d7 14bf 0a2a 35be a8be 00bf 8a92 053d
00000190: 5446 763e f8a0 84bf 2c38 e8be b1b0 84bf
000001a0: b24e 45bf 8f23 653f c7a3 8cbf 17b5 60bd
000001b0: 6b85 4dbf 027c 8bbf cc55 1bbf 9d92 05bf
000001c0: d0c0 da39 d8a9 2f3d b902 a63e aae0 8c3e
000001d0: 347b 4e3e 66b1 833e b4b5 5dbd fed3 13bf
000001e0: 70c5 f9be 2fa5 4b3e 1b76 2b3e cf7a 4b3f
000001f0: a16f 523e 8236 e73e 6881 eebf 7b85 363f
00000200: 3fb8 17bd 3345 ffbc 1138 51be b377 aabd
00000210: 83ec e93c b456 993d 7ef0 38bd 6f6d 073e
00000220: 97f2 82bd f89a 85bd dd76 03be 1386 b4bb
00000230: 0f00 353d d80a 24be d234 d83d 7e42 c93d
00000240: 295d 813d b1ab bebd 08f0 89bd 69bf 82be
00000250: 311d 02be 79df ae3d fcad 3e3e 6bc5 ea3d
00000260: 0383 cb3d c22e 5e3c 5cca 283d fed2 4fbc
00000270: 1843 64bd 0cce 8cbb 2ecf 66be 9ce7 f63d
00000280: e5d5 4a3e ccdc 02be 4d78 1a3e 9f32 55bd
00000290: 4dcc 833a 6b5d d7bd 4fd8 243c d206 553d
000002a0: 6e49 4f3e 2375 813d 5a6c d8bb bdf4 553d
000002b0: 404d eb3d 53e6 41bd 11d9 523e 64eb e43c
000002c0: bd64 3a3d e461 c13d 6cd5 053d 4ee0 a7bd
000002d0: 31b1 09be e2d4 42bd d999 74bd 901e 66bd
000002e0: 55ef 08be c91f 543d 7ddc 3f3d 4c18 0e3e
000002f0: 7702 c8bd 0916 513c a68b 873d 6304 ea3c
00000300: ad68 4fbd 806a a4bd 2248 d83e c582 d0be
00000310: e2b4 ed3a b4cf 22bf 0439 c63e d646 65be
00000320: 70f8 60be 3f62 883f c224 d6bf 8319 c2bf
00000330: 0b22 d9be 8934 1a3d 3eea afbd 6fb8 1cbf
00000340: dd66 3abf 70b4 623c e1c3 4c3e 73c8 ae3d
00000350: 5f1b 133f 5ad4 16be 6b6e 87bd 854b 2ebf
00000360: 1e6e bbbf 7d1a c53d 4cda eabc 7f66 46bf
00000370: a5ac bfbd d15d b33d a69c 403f d557 43bf
00000380: f135 14bf 185c ba3e 2303 c8be c6d6 0cbe
00000390: 8f37 1dbe 5a81 cfbf 6414 30c0 4012 cbbe
000003a0: 1d52 66be af76 35bf 5abb a43f 5b50 a4bc
000003b0: 6c46 fcbf 55a4 db3f 94bb 00bf f5a2 1cbe
000003c0: e048 babe 69c9 aabe 1174 12bf 1416 17bf
000003d0: 8fac 01be 7f91 65bd 64f8 743c 8a13 68bf
000003e0: ab72 973f 21d0 88bf b0a8 6ec0 b775 c0bd
000003f0: 9381 e9be d2ad aebe 7464 54c0 cba1 b3bf
0.06830204 1.1754704 -0.81424916 -1.3045199 0.1962545 0.7350661 0.4133881 0.34860742
-0.25610736 -1.289748 0.12661882 1.1431046 0.28024125 1.1525708 -0.20868284 0.03092017
0.73260105 0.6686537 0.07772984 -0.32828957 -0.5408323 -0.17569613 0.27048913 0.40680578
0.99422026 0.030026723 0.06314192 -0.29023618 0.33569586 0.4982943 -0.7285424 1.0384992
0.84555376 -0.5724824 0.117319554 0.10783836 -0.42719877 0.5939774 1.9255513 -0.27443916
0.17856061 0.5464528 -1.9820656 -0.16575725 0.9868421 -2.8711019 0.5751284 0.015375736
-0.057466324 0.1287857 -0.14572906 -0.66642195 0.1412823 -0.024440983 -0.2768872 0.23902212
-0.41772965 0.04225862 1.203574 -2.8007784 -1.2479259 0.41067436 0.114058025 -0.60462767
-0.93141085 -1.3970263 -0.25529414 0.37010202 0.06811146 -0.4941733 0.1271453 -0.58088726
-0.040301535 -1.2363898 -1.2107555 -3.068896 0.48167568 -1.0773759 -0.8763369 0.5183188
-0.40821892 -1.1880449 -0.031112023 0.020377908 -0.19655295 -0.7683644 0.32085383 -1.147193
-3.175369 0.011498633 0.051774137 0.76725835 -0.008520441 -3.869664 -0.39472315 0.8601049
-0.5814165 -0.17691818 -0.5029092 0.032610454 0.24050266 -1.0361624 -0.45355356 -1.0366422
-0.77073205 0.89507383 -1.0987481 -0.0548602 -0.80281705 -1.0897219 -0.6067779 -0.5217684
0.00041723857 0.042886585 0.32423952 0.27515155 0.20164186 0.25721282 -0.054128364 -0.5774535
-0.48783445 0.19887231 0.16744272 0.79484266 0.20550396 0.45158774 -1.8633242 0.71297425
-0.037040945 -0.031160926 -0.20431544 -0.08323612 0.02855516 0.074872404 -0.045151226 0.1322534
-0.063939266 -0.065236986 -0.12838311 -0.005509147 0.04418951 -0.16019762 0.1055695 0.098271355
0.06316597 -0.09310091 -0.067352355 -0.2553666 -0.12706448 0.08538718 0.18621057 0.11463436
0.09937098 0.013560953 0.04120861 -0.012684582 -0.055728048 -0.0042970236 -0.2253997 0.12055895
0.19808157 -0.1277954 0.15084954 -0.05205023 0.0010055393 -0.10515865 0.010061338 0.052008457
0.20242855 0.0632117 -0.0066047134 0.052235354 0.11489344 -0.047338795 0.20590617 0.027944274
0.045506228 0.09442499 0.032674238 -0.081970796 -0.134465 -0.047566302 -0.059717033 -0.05618149
-0.13372548 0.051788125 0.046841133 0.13876456 -0.09766095 0.012761601 0.06618433 0.028566545
-0.050636936 -0.08028126 0.42242533 -0.4072477 0.0018135572 -0.6359818 0.38715374 -0.22390303
-0.21969771 1.0654982 -1.6729968 -1.5164036 -0.42408785 0.037647758 -0.085896 -0.61218923
-0.72813207 0.013836965 0.19996597 0.085343264 0.5746364 -0.14729443 -0.066128574 -0.68083984
-1.464298 0.09624193 -0.028668545 -0.77500147 -0.09359101 0.087581284 0.75239027 -0.76305896
-0.5789481 0.36398387 -0.39064893 -0.13753805 -0.15353225 -1.621135 -2.7512445 -0.3966236
-0.22492261 -0.7088422 1.2869675 -0.020057848 -1.9708991 1.7159525 -0.5028622 -0.15296538
-0.36383724 -0.3335679 -0.57208353 -0.59018064 -0.12663482 -0.05604696 0.014951799 -0.90654814
1.1831869 -1.0688516 -3.7290459 -0.09397452 -0.4560667 -0.3411699 -3.3186312 -1.403375

fc2.bias f4 [64]
00000000: 607b 16c0 89ed 74bf 1d07 ddbd f2fa 1c40
00000010: 2de8 74bf 088b 16bf b801 81bf cf99 0640
00000020: 6666 633f fe9d 60bf 458a 3dbf b67b 45bf
00000030: 93c0 18bf dfb0 03bf e60a 3abf d206 55bf
00000040: 5ec5 69bf e183 7abf 36ed 75bf e987 453f
00000050: 1bf2 9cbe 216d 5c3f e125 68bf c09c c1bd
00000060: 3b5b 16bf aae7 98bf 5837 08bf e214 ef3e
00000070: beba 823f 12cf 583f ceb6 e0be 20a0 8ebe
00000080: b3a2 83bf 157a 8d3c d696 abbe 974a 08c0
00000090: 8099 903f 25ff 64be 7613 d7be 61ac 6cbf
000000a0: 96be 79bf 29cc 0bbf 06f0 dcbe d207 d23e
000000b0: 950d c1be 3b49 d1be 9c19 203f 93ff bebe
000000c0: 95e6 92bf 437b 4abf 2cfc d2bf 37e2 8a3e
000000d0: e030 8cbf 0199 98be 386c 1940 44cf 38bf
000000e0: 7a24 30bf 8650 01c0 04ec 853f 8aec 86bf
000000f0: 4a5f d9be 1cd8 abbd 072b ca3e 206e a0bf
-2.3512802 -0.9567495 -0.107923724 2.4528165 -0.9566677 -0.58805895 -1.007865 2.1031377
0.8882812 -0.87741077 -0.7403911 -0.7714189 -0.59668845 -0.5144176 -0.7267288 -0.8321353
-0.91316783 -0.9785748 -0.9606508 0.7716051 -0.30653462 0.8610402 -0.906828 -0.09453726
-0.58732957 -1.1945698 -0.5320945 0.4669562 1.0213239 0.84690964 -0.4388947 -0.2785654
-1.0284027 0.017270127 -0.33513516 -2.1295526 1.1296844 -0.22362955 -0.42007035 -0.9245053
-0.97556436 -0.546084 -0.43151873 0.4102159 -0.37705675 -0.40876183 0.62539077 -0.37304363
-1.1476618 -0.7909433 -1.6483207 0.27125713 -1.0952415 -0.29804233 2.3972301 -0.7219126
-0.6880566 -2.0205398 1.0462651 -1.0540936 -0.42455512 -0.08390829 0.39485952 -1.2533607

out.weight f4 [3, 64]
00000000: e739 a73f da00 fbbe 753c 1b3d 921d 82bf
00000010: 09a0 053e 0442 9f3c ae4e 55be 999f d8bf
00000020: b2c8 4a3d 6fed c7be 5c50 623e 79ed 4c3e
00000030: 2559 b63d b1f7 6dbd ba24 d3bc 072d bcbe
00000040: f40d 9abe 76cc c03d 5050 7dbe 2dc6 9f3f
00000050: fc8f b4be 0c69 a93e 4dd9 31be 2b1e 3bbd
00000060: 3889 99bd 053f 09be eb95 72be 6a02 593e
00000070: 4e9c 83bf 0e9f 5b3e b0b8 85be 31ae 91bc
00000080: bae2 dc3d 1973 2ac0 995c 8dbe 1a1b afbf
00000090: 230c 5ebe 464e 1e3e d456 71bd e07a 193e
000000a0: 1104 65be cf9d 40be a7e3 62be 6d92 b03f
000000b0: d519 a13d 3a11 c3bd f9db 143e 7c83 4ebe
000000c0: 5b4b 8abe 4b95 de3b 0286 fabe 66fb de3d
000000d0: 8ffb 6abe 9f22 8abe 5143 16bf 2dd8 cabd
000000e0: 1def 41be d171 943f ffab c9be 8ff7 52be
000000f0: 89f9 88bf c57f 4a3f 8de2 133f 7363 edbe
00000100: b846 84be a59e 5dbf 6379 173d 23ed 893f
00000110: 680a 57be 90dc 0e3d 8194 3a3d 5905 2740
00000120: a421 133e 5fcd 19bf 8b65 dbbd c390 16be
00000130: e49e 113d c30e 1abe 52c9 a53d 340c a9bd
00000140: 3901 38bf 653c ecbd 26dc 93be 5337 7abf
00000150: d814 f43c a304 793d fdfc d4be 7fe9 47bd
00000160: e9ad 153f 05a1 5fbe 2b76 b93d 1d85 c9bd
00000170: 7756 3c3f 1892 a7bd 206a 5dbe bdf5 683d
00000180: 7eaa a5bd 7770 133f 3ebd 86bc d08a 043f
00000190: 9432 173e f4a6 2b3e 0239 723c f617 22bb
000001a0: 3b85 703d fbfd 443c 7523 803e 859d 93bf
000001b0: b62f c73d ea6a fdbd 4a1e 3e3f 1d27 5a3e
000001c0: 219b 19bf 973c 103c 99eb ac3e a243 b1bc
000001d0: 8573 96be d418 763d 9c96 8e3f 3473 503e
000001e0: f54e fcbd 9e5e 8bbf 07c7 b13e 4a59 2abe
000001f0: e75b 8e3f e595 45bf 615c 2abf 82c9 2abf
00000200: 8210 3fc0 d94f 553f 9bae 573d c3a3 21bf
00000210: 8002 2abe 88bc 0e3e e7ae 3a3e 6f8a e1bf
00000220: 59d7 efbd 0ca5 2f3f 4ebb dc3d 7c48 693c
00000230: 411e ddbd f060 69bd 902f 1dbf b83b 423e
00000240: 3349 613f 323f 1fbe 57ff e83e 05f8 8cbe
00000250: 1922 a0be 1ee4 98be e217 173f 689a fcbd
00000260: 4c0e 5ebf 5cb7 d53e 43f4 b93d a221 04be
00000270: 3677 e93b 9c10 90bd 23bd 5ebd 0df6 9b3c
00000280: 2118 09bd 7003 6fbd bac5 003d f0e9 dabd
00000290: eb1f cdbd 48d2 dfbe 2c08 12bd 73b1 9bbc
000002a0: 0fe4 d03d 0854 aebc c9e3 35be 2329 17bf
000002b0: e9d2 94be 1fba 943e 8011 4fbf 9537 08be
000002c0: 2a7c 2c3f 3e30 79be e923 64be a947 6fbe
000002d0: 6264 dc3e 7e8a 53bf f7f5 bdbf 0470 44be
000002e0: b429 ba3e 6c74 043d 0434 e13b c024 423e
000002f0: 1dc2 0bbf bc21 ba3d 037d 0ebf 56a4 383f
1.3064545 -0.49024087 0.037899453 -1.0165274 0.1304933 0.019440658 -0.20830795 -1.6923705
0.049507804 -0.39048335 0.22100967 0.20012464 0.08903722 -0.058097545 -0.025774349 -0.36753103
-0.3008877 0.09413998 -0.24737668 1.2482353 -0.352661 0.33087957 -0.1736805 -0.045683067
-0.074968755 -0.13402946 -0.23690002 0.21192327 -1.0282075 0.21447393 -0.26117468 -0.017783256
0.10785432 -2.663275 -0.2760971 -1.3680146 -0.21684317 0.15459546 -0.058920696 0.1498828
-0.22364832 -0.18810199 -0.22157155 1.3794686 0.07866255 -0.0952477 0.14537038 -0.20167345
-0.27010617 0.0067926995 -0.48930365 0.10887794 -0.22947524 -0.2697954 -0.58696467 -0.099045135
-0.1893887 1.1597234 -0.39389035 -0.20602249 -1.0701152 0.7910121 0.57767564 -0.46364936
-0.25835204 -0.865702 0.036980998 1.0775493 -0.21000063 0.034878314 0.04555178 2.6097014
0.14368302 -0.60078996 -0.10712727 -0.1470366 0.03555192 -0.15044694 0.080950394 -0.08254281
-0.71876866 -0.11534957 -0.28878897 -0.9774067 0.029795095 0.060795438 -0.41599265 -0.048806664
0.5846849 -0.21838768 0.09055742 -0.098398425 0.73569435 -0.08182162 -0.21622515 0.05687498
-0.080891594 0.5759348 -0.01644766 0.5177431 0.14765388 0.16762906 0.0147840995 -0.002473352
0.05872081 0.012023444 0.25027052 -1.1532446 0.09725897 -0.12373908 0.7426497 0.21303983
-0.6000233 0.008803508 0.33773497 -0.021638695 -0.2938501 0.06008227 1.1139712 0.20356447
-0.12319747 -1.088825 0.34722158 -0.16635624 1.1121796 -0.77181846 -0.6654721 -0.66713727
-2.9853826 0.8332496 0.05265675 -0.63140506 -0.16602516 0.13939106 0.18230782 -1.7620372
-0.11710996 0.68611217 0.10777913 0.014238473 -0.10796786 -0.056977212 -0.614007 0.18968093
0.8800232 -0.15551451 0.4550731 -0.27532974 -0.31276014 -0.2986154 0.5902082 -0.12334138
-0.86740565 0.41741455 0.09079792 -0.12903455 0.0071248068 -0.07034418 -0.054379594 0.019038225
-0.033470277 -0.058352888 0.031438567 -0.10689151 -0.100158535 -0.4371512 -0.035652325 -0.019005513
0.10199749 -0.021280304 -0.17762674 -0.59047145 -0.29067162 0.2904825 -0.8088608 -0.13302453
0.6737696 -0.24334809 -0.22279324 -0.2336718 0.43045336 -0.826332 -1.4840688 -0.19183356
0.36359942 0.03233759 0.006872656 0.18959332 -0.5459307 0.090884656 -0.556595 0.72125757

out.bias f4 [3]
00000000: 3d54 4bbf 3e1a 943f 0947 5abf
-0.7942541 1.1570508 -0.8526464
