weights/ckpt.pth (torch, 20511 bytes, 6 tensors)

fc1.weight f4 [64, 2]
0.9186371 1.0256237 -0.09960391 -0.06806152 -0.08415699 0.03565821 -0.66358304 0.41395664
-0.9862989 0.5592357 -0.775207 0.3381456 0.21156943 0.5242833 -0.038631707 0.077944726
0.17878345 0.4037544 -0.06854627 0.05940151 0.10023546 -0.95950603 -0.010097937 0.012962582
0.91479766 -0.442739 1.0632356 1.1567312 0.11105633 -0.90204805 0.15563878 -0.8512715
-0.3775216 1.957068 0.3872355 1.160883 -0.2611879 1.7988082 -0.1384886 -0.22564109
0.067826204 -0.72427845 -0.04206325 -0.10685121 -0.13671948 1.3313024 1.205066 1.359718
-0.07664067 0.067343555 -0.36021775 2.3715327 0.3285808 0.6968597 -0.08087967 -0.17258698
1.139044 0.63979995 -0.6064785 -1.3626019 0.63655883 -1.2178088 -0.011871793 -0.26641145
0.4159485 1.305976 0.03901351 -0.048876513 0.5076824 -1.1467962 0.33082512 -0.8679941
-0.087455 0.23877256 0.16004622 0.31849802 1.0359732 1.1407943 -0.07809733 0.043658413
-0.19745903 0.019964568 -0.07824702 0.048658088 -0.041231696 -0.037096165 -0.11383248 0.03329695
0.13294588 -0.17357598 0.39553294 1.2970165 0.28617933 0.491568 0.012656219 0.027227584
0.12562157 0.6342658 0.7692575 -0.35913187 0.7584321 -1.6442504 1.3107013 0.7889541
-0.13083814 0.21145526 0.13129972 0.3212838 0.84301466 -1.0189663 0.27583367 0.5738421
0.047828596 0.1839027 0.17276813 0.42041594 -0.08491774 -0.17764823 0.65162426 0.16922034
-0.039267316 -1.0786171 -1.4263121 1.6215227 0.056006275 -0.010469911 0.8991095 -0.35824263
00000000: cd2b 6b3f a347 833f 23fd cbbd d763 8bbd
00000010: 805a acbd 580e 123d 94e0 29bf 20f2 d33e
00000020: 167e 7cbf 122a 0f3f f773 46bf 6c21 ad3e
00000030: a8a5 583e 6e37 063f 483c 1ebd 7ca1 9f3d
00000040: 0213 373e e6b8 ce3e fd61 8cbd ff4e 733d
00000050: 4048 cd3d 30a2 75bf d171 25bc 0261 543c
00000060: 2e30 6a3f b0ae e2be 1b18 883f c50f 943f
00000070: 8071 e33d 9fec 66bf c65f 1f3e eeec 59bf
00000080: 834a c1be 3481 fa3f bb43 c63e d097 943f
00000090: 6cba 85be 593f e63f f5cf 0dbe 750e 67be
000000a0: 77e8 8a3d 506a 39bf 844a 2cbd cfd4 dabd
000000b0: 3100 0cbe 1e68 aa3f 9a3f 9a3f 3d0b ae3f
000000c0: c9f5 9cbd 6beb 893d 766e b8be 31c7 1740
000000d0: be3b a83e 6665 323f 3ea4 a5bd a4ba 30be
000000e0: 32cc 913f eec9 233f 2d42 1bbf bd69 aebf
000000f0: 85f5 223f 29e1 9bbf e981 42bc 1567 88be
00000100: 34f7 d43e 392a a73f a1cc 1f3d bd32 48bd
00000110: 79f7 013f 38ca 92bf e961 a93e dd34 5ebf
00000120: 9b1b b3bd cb80 743e 28e3 233e 2c12 a33e
00000130: c59a 843f 8c05 923f 7ef1 9fbd 2ad3 323d
00000140: b332 4abe bc8c a33c f93f a0bd b44d 473d
00000150: 91e2 28bd 26f2 17bd 0121 e9bd 6262 083d
00000160: f722 083e e7bd 31be 4b83 ca3e a304 a63f
00000170: 1986 923e cdae fb3e 085c 4f3c 620c df3c
00000180: f1a2 003e 3e5f 223f 0fee 443f 22e0 b7be
00000190: 9b28 423f cc76 d2bf 0fc5 a73f e5f8 493f
000001a0: 6ffa 05be ba87 583e 6f73 063e 4f7f a43e
000001b0: cfcf 573f 7d6d 82bf 123a 8d3e 51e7 123f
000001c0: ebe7 433d fd50 3c3e 21ea 303e c240 d73e
000001d0: 5ae9 adbd 6be9 35be d9d0 263f 1948 2d3e
000001e0: c4d6 20bd 2010 8abf 6591 b6bf 0e8e cf3f
000001f0: d666 653d fd89 2bbc 0a2c 663f 946b b7be

fc1.bias f4 [64]
0.9605102 -1.2613791 -0.63243604 -4.096421 -2.3224764 -4.323152 1.9905092 -0.6510131
3.6624346 -0.4860512 -3.6435208 -0.38553908 -4.08889 1.0063201 -3.3469021 -3.0579484
-2.1184886 -1.8851358 -1.3630705 -0.041048147 -2.7912073 -1.0051117 -1.8626528 1.0397797
-1.076623 -1.9275388 -0.5692118 -1.9393762 -3.4720004 -2.2820098 -1.5204028 -2.3915439
-1.792347 -0.44034854 -3.6078901 -1.6134937 -1.5866647 2.9149528 1.0706139 -1.3347541
-1.4954907 -1.0856432 -0.6613441 -1.0330124 -2.3674064 -1.9202584 3.7564259 -0.61603606
1.9774078 -3.6836429 -2.0897505 -3.9319248 -0.9534596 1.1531204 -2.5823953 2.1531901
-0.048989754 3.37257 -2.5327013 -3.7296 -3.807804 -0.69822645 -0.81495655 -4.050381
00000000: ffe3 753f df74 a1bf 54e7 21bf e115 83c0
00000010: 74a3 14c0 4357 8ac0 01c9 fe3f cba8 26bf
00000020: 5465 6a40 b4db f8be 722f 69c0 6165 c5be
00000030: 30d8 82c0 19cf 803f a533 56c0 6db5 43c0
00000040: 5195 07c0 214c f1bf 1879 aebf 1a22 28bd
00000050: 24a3 32c0 80a7 80bf 686b eebf 8017 853f
00000060: c8ce 89bf 97b9 f6bf ddb7 11bf 7b3d f8bf
00000070: 4135 5ec0 730c 12c0 8f9c c2bf 0e0f 19c0
00000080: a06b e5bf 5d75 e1be ace7 66c0 f686 cebf
00000090: d417 cbbf 968e 3a40 e009 893f 39d9 aabf
000000a0: 3d6c bfbf 5bf6 8abf d94d 29bf c039 84bf
000000b0: 9683 17c0 07cb f5bf 4869 7040 8ab4 1dbf
000000c0: b31b fd3f cec0 6bc0 79be 05c0 a8a4 7bc0
000000d0: ee15 74bf 7399 933f f745 25c0 decd 0940
000000e0: 7ba9 48bd 30d8 5740 c717 22c0 c4b1 6ec0
000000f0: 10b3 73c0 f8be 32bf fea0 50bf b99c 81c0

fc2.weight f4 [64, 64]
-0.032694045 0.31354183 -0.27532336 2.5497363 0.31569287 2.3341444 -0.27181497 -0.06966137
-0.944822 0.009224407 0.09815194 0.19867413 -1.3184788 -0.004747283 0.027563632 0.3250747
-0.31638834 -0.72892493 -0.72915477 0.51895887 0.15698974 0.14937425 0.26578632 -0.097828805
0.48521984 -0.26841524 -0.18090697 0.34399444 -0.66737324 0.59190357 -1.1735111 0.19372214
-0.4045571 -0.39211273 -1.989771 0.05053293 -0.82402754 -0.6999922 -0.0689843 -0.39205137
0.24910647 -0.16101076 0.04624978 -0.089883454 -1.3264556 -0.635693 -1.4649156 -0.11980447
-0.25894964 -1.0393958 -2.8868349 -0.604548 -0.090354204 -0.11940236 -2.0560365 -0.28311118
-0.71642816 -1.345868 0.18417244 -1.1001347 0.37799668 1.1648109 -0.40242702 -1.083439
0.42084455 0.47943136 0.1296987 -0.5719015 -0.39537495 -0.057598308 -2.51895 0.065495014
-1.1246432 -0.100637786 -1.1650754 -0.055277385 2.3458207 0.519803 -0.7847405 -0.8774158
-1.3969209 -0.030401431 -0.53699607 -0.37188786 0.28048316 0.08084468 -1.487677 0.60348266
0.2833436 -1.7588878 0.55854243 0.016791122 1.5955315 -4.137855 -0.1504142 -0.62245417
0.5110467 -0.28429508 -0.9258623 -0.1321899 0.7120193 -1.4756975 0.33815897 0.058508307
0.5402428 -0.34738585 0.124099895 0.31534076 0.46174613 0.41398197 -0.8149309 -0.00736118
-3.0185864 2.2655463 1.0280826 1.7007113 0.25002754 -2.6341853 0.38644183 -2.878853
0.3761485 -1.7878565 -0.13161509 2.731199 -2.7456176 -0.78331506 0.5705825 2.6454456
0.3186152 0.13887037 0.10662632 0.75107706 -0.09252955 0.5437487 -0.42103395 0.057138216
-0.2824323 0.1701122 0.16990782 0.12216089 -0.7534523 0.26674008 0.004730171 0.081761666
0.48641837 0.2811856 0.23736286 -0.4438264 0.017796867 0.25747958 -0.004618835 0.18260217
0.07492222 0.48367542 0.08788703 0.14363058 -0.119768955 0.16348803 0.19340296 -0.15489237
-0.0054965965 -0.3649057 -0.35482433 -0.055492815 0.24560516 -0.48224434 0.41355675 0.076395094
0.33487788 0.20332815 -0.04610089 0.24633513 -0.2237329 0.18031108 -0.28198025 -0.11789201
-0.14380345 -0.6191712 -0.14741848 -0.2509082 0.31203285 -0.54604316 -0.49133962 -0.4835857
0.03260752 -0.4063447 0.04253008 -0.87247086 0.0016384372 0.03874297 0.03140653 -0.70269185
0.22018746 -0.64578927 0.0059101437 1.4995716 0.47994134 1.5052712 -0.12689772 -0.0046357904
-1.0575091 0.019543866 -0.4968107 -0.4641568 1.1938876 0.13776234 -0.4100409 -0.80078673
-3.3656425 -0.39244187 -2.723569 0.090825304 -0.82683986 -0.33150244 -0.18731579 0.11810917
-0.3266245 -3.8025525 0.26816547 0.08440596 0.86624 1.9151925 -1.9411656 -1.6193726
0.17832199 0.020305436 -2.0928311 0.105744936 -0.7264889 -0.9277044 0.17989446 0.09519725
0.32869798 -0.16130549 -0.19778062 0.77669847 -0.4410389 0.16203165 -1.2257485 0.042668484
-0.24368393 0.6461802 -0.5207412 0.7337433 0.32511285 -0.06303168 -0.3368959 -0.2728181
-0.039145365 -1.0263629 -0.086008035 1.2517711 -0.06212699 0.52022684 0.049147375 1.0161515
00000000: 31ea 05bd 8e88 a03e 2ff7 8cbe e12e 2340
00000010: 7fa2 a13e 9f62 1540 552b 8bbe 9faa 8ebd
00000020: dbdf 71bf f821 173c e203 c93d 3b71 4b3e
00000030: eac3 a8bf 198f 9bbb 20cd e13c 3170 a63e
00000040: a7fd a1be d39a 3abf e3a9 3abf 7dda 043f
00000050: ebc1 203e 90f5 183e 2515 883e 785a c8bd
00000060: bc6e f83e b96d 89be ad3f 39be 0a20 b03e
00000070: f9d8 2abf fe86 173f 9d35 96bf 195f 463e
00000080: 1c22 cfbe 00c3 c8be d1b0 febf 9efb 4e3d
00000090: 78f3 52bf b032 33bf a447 8dbd f5ba c8be
000000a0: c415 7f3e 01e0 24be 6970 3d3d d114 b8bd
000000b0: 4cc9 a9bf c7bc 22bf 5b82 bbbf 0c5c f5bd
000000c0: 0c95 84be ec0a 85bf e7c1 38c0 a8c3 1abf
000000d0: a00b b9bd 3989 f4bd 1a96 03c0 f3f3 90be
000000e0: d667 37bf 6745 acbf b397 3c3e 37d1 8cbf
000000f0: c888 c13e 8618 953f ea0a cebe 21ae 8abf
00000100: f078 d73e 0778 f53e bccf 043e 2368 12bf
00000110: 966e cabe 34ec 6bbd 7a36 21c0 4022 863d
00000120: 4ff4 8fbf 2f1b cebd 3121 95bf 8a6a 62bd
00000130: ed21 1640 cf11 053f c1e4 48bf 529e 60bf
00000140: 4ece b2bf 6c0c f9bc 9378 09bf 1668 bebe
00000150: 7d9b 8f3e e591 a53d 336c bebf d77d 1a3f
00000160: 6a12 913e 3c23 e1bf a3fc 0e3f 898d 893c
00000170: 603a cc3f 4f69 84c0 2e06 1abe 2859 1fbf
00000180: f5d3 023f 208f 91be 5005 6dbf ca5c 07be
00000190: e646 363f a8e3 bcbf 2c23 ad3e 68a6 6f3d
000001a0: 5a4d 0a3f 8fdc b1be 1628 fe3d 5874 a13e
000001b0: fd69 ec3e 72f5 d33e 509f 50bf 0e36 f1bb
000001c0: 8530 41c0 b6fe 1040 3698 833f e8b0 d93f
000001d0: 9c03 803e 7e96 28c0 b4db c53e 213f 38c0
000001e0: 8996 c03e 7bd8 e4bf 1bc6 06be f7cb 2e40
000001f0: 33b8 2fc0 5687 48bf b211 123f fb4e 2940
00000200: 8821 a33e 0934 0e3e e65e da3d 9646 403f
00000210: 2280 bdbd 1d33 0b3f c391 d7be c309 6a3d
00000220: f79a 90be e431 2e3e 51fc 2d3e 7d2f fa3d
00000230: 40e2 40bf 2892 883e 8dff 9a3b a972 a73d
00000240: d40b f93e 8ff7 8f3e 400f 733e 373d e3be
00000250: bcca 913c 5dd4 833e 9959 97bb 10fc 3a3e
00000260: d270 993d 4ea4 f73e 1dfe b33d e513 133e
00000270: 6d49 f5bd 6869 273e 6d0b 463e 1b9c 1ebe
00000280: cb1c b4bb ebd4 babe 89ab b5be 6f4c 63bd
00000290: eb7f 7b3e bbe8 f6be b6bd d33e 0875 9c3d
000002a0: 1d75 ab3e 4135 503e 49d4 3cbd 473f 7c3e
000002b0: 3d1a 65be 78a3 383e b75f 90be 5e71 f1bd
000002c0: 3641 13be 0182 1ebf dff4 16be 0a77 80be
000002d0: c5c2 9f3e 7cc9 0bbf de90 fbbe 8b98 f7be
000002e0: 778f 053d 6a0c d0be 0534 2e3d 405a 5fbf
000002f0: d4c0 d63a f3b0 1e3d 22a4 003d 9de3 33bf
00000300: d278 613e 7252 25bf e1a9 c13b f6f1 bf3f
00000310: dfba f53e baac c03f 7af1 01be d4e7 97bb
00000320: 755c 87bf 751a a03c f95d febe f6a5 edbe
00000330: 4fd1 983f 9211 0d3e e1f0 d1be 5c00 4dbf
00000340: b066 57c0 24ee c8be f44e 2ec0 9e02 ba3d
00000350: c7ab 53bf b0ba a9be b6cf 3fbe 38e3 f13d
00000360: 543b a7be 055d 73c0 fc4c 893e 08dd ac3d
00000370: e8c1 5d3f 0725 f53f 1d78 f8bf 9a47 cfbf
00000380: 0a9a 363e 9657 a63c f2f0 05c0 cd90 d83d
00000390: 2dfb 39bf 097e 6dbf 4136 383e c7f6 c23d
000003a0: 1a4b a83e 442d 25be 0187 4abe b6d5 463f
000003b0: dacf e1be a0eb 253e 54e5 9cbf 26c5 2e3d
000003c0: 4888 79be 116c 253f 4c4f 05bf 9ad6 3b3f
000003d0: 3175 a63e c116 81bd 9f7d acbe d0ae 8bbe
000003e0: e456 20bd dc5f 83bf fb24 b0bd 093a a03f
000003f0: df78 7ebd 962d 053f c24e 493d 4111 823f

fc2.bias f4 [64]
-0.15139414 -2.1504204 -0.5823313 -0.2990305 -0.8753175 -0.73549026 -0.3609909 -2.492233
-0.33794624 0.8001698 -0.174773 -0.3259002 -0.6041636 -0.39718622 -0.7325794 -2.7459023
-0.48273766 -1.390124 -0.8069956 -0.6248977 0.16402131 -0.9356367 -0.6844138 0.38699514
-1.1978855 -0.11956382 -2.5370433 0.2468911 -0.65888333 -0.7786217 1.9701334 -2.523752
0.04682491 -0.101832315 -1.8387457 -1.42795 0.4754128 -2.0858047 0.08379417 -0.7633733
-0.62214535 0.1771062 0.09131141 -1.9423094 0.47705883 -0.7369252 -0.32216546 -0.7291523
3.3631928 -0.40413636 -2.8561833 -0.28357783 -0.53211856 -1.1237516 -1.1607343 -0.81011826
0.017192895 -1.9954555 2.1171968 -0.09566743 1.7034779 0.53653103 -1.1722493 -0.830094
00000000: 1107 1bbe 7da0 09c0 aa13 15bf 871a 99be
00000010: cf14 60bf 1749 3cbf cdd3 b8be bf80 1fc0
00000020: 4a07 adbe eed7 4c3f b1f7 32be 64dc a6be
00000030: 77aa 1abf fe5b cbbe 538a 3bbf ddbc 2fc0
00000040: 6429 f7be 95ef b1bf 4397 4ebf 4cf9 1fbf
00000050: 34f5 273e e385 6fbf be35 2fbf 3a24 c63e
00000060: 5054 99bf e0dd f4bd eb5e 22c0 05d1 7c3e
00000070: 94ac 28bf c053 47bf 552d fc3f 2785 21c0
00000080: 7acb 3f3d 768d d0bd 055c ebbf 11c7 b6bf
00000090: 4e69 f33e d37d 05c0 479c ab3d 6f6c 43bf
000000a0: eb44 1fbf 545b 353e 7a01 bb3d 989d f8bf
000000b0: 0e41 f43e 21a7 3cbf dff2 a4be baa9 3abf
000000c0: 8d3e 5740 f6ea cebe b5cb 36c0 1d31 91be
000000d0: ec38 08bf 18d7 8fbf f192 94bf e963 4fbf
000000e0: 1dd8 8c3c 166b ffbf 2780 0740 49ed c3bd
000000f0: 900b da3f 195a 093f 440c 96bf 0a81 54bf

out.weight f4 [3, 64]
0.11034237 -1.9483804 -0.17218027 -4.101553 0.11324762 0.27842018 0.08530517 -0.21557955
-0.032103527 -0.22310844 -0.049141683 -0.01608437 0.3883335 0.108090974 0.49306884 -0.083825134
-0.40464294 0.37020352 -0.5984339 -0.17908308 0.2190997 0.04233096 0.42036778 0.06279526
-0.86783856 -0.0050372416 -0.42014635 0.033667017 1.2364632 -0.11293466 -1.7271183 -0.3820691
0.037590753 -0.10101692 -0.11976567 -0.26014975 0.2559531 0.47789094 0.12747295 0.10194178
-3.476963 1.4089291 0.24900422 -0.22002004 0.75534445 -0.09842441 0.22720632 0.25413924
-1.5692947 0.24247676 -0.20500028 0.055735372 0.08001819 0.17236564 -0.18665716 0.19379628
0.062306732 -0.2658713 -2.790317 -0.101721734 -1.6120417 0.17829052 -0.21701026 -0.19195771
0.2646681 1.0234216 0.20205234 0.021752438 0.16481169 -0.32627904 -0.024613295 -1.2025899
-0.19317272 0.29638815 0.25498125 0.25708377 -0.36218292 0.10524825 0.35459054 -1.0049927
0.6854943 -0.26173952 0.24457732 -0.027378445 -0.3867541 -0.10234821 -0.33183995 -0.099186555
0.13992077 0.11686143 -1.0714788 -0.0778123 -1.212697 0.17294204 1.7596184 -1.1315633
0.05511996 0.04076659 -0.18558197 -0.06380968 -0.48902494 -0.007023948 -0.040570345 -0.3510228
0.38827595 -1.3298284 -0.20647383 -0.12795056 -0.41390327 0.29656214 -0.111886665 -0.21991862
2.2095535 -0.13356686 -1.9003524 0.08360884 0.09255377 -0.16499262 -0.16469602 -0.29028258
-0.83663166 -0.3351499 2.0481832 0.38893428 1.0591577 -0.08004216 0.07933715 0.13629031
-1.3841124 -0.4071754 -0.21182236 0.54158354 0.002318258 0.22741477 0.26553681 1.100663
0.00030609302 -0.18728182 -0.1543306 -0.17503606 -0.04671378 -0.2300248 -2.2329319 1.0680729
-1.0434625 -1.1831627 -0.026749386 -0.07073696 0.16703984 -0.23634048 -0.44438663 0.14628017
-0.64622957 0.14281859 1.0420922 0.45322108 -0.27663615 -0.3022806 -0.31034607 1.0710156
0.025923895 -0.22232656 0.27361837 0.070357874 -0.16817418 -1.2549224 0.08066924 0.011862659
0.32247528 -0.2925702 0.017768918 0.041585572 0.11662107 -0.65202403 -0.10116521 -0.25149244
-2.8182964 0.181536 1.8705175 0.11251093 0.34853643 0.22557981 0.12692967 0.3219487
0.53878915 0.33797032 -0.20056148 -0.27820718 0.0473285 0.10747677 0.0005756387 -0.26467776
00000000: 2efb e13d 8764 f9bf 0650 30be ec3f 83c0
00000010: 5eee e73d 178d 8e3e 7ab4 ae3d e3c0 5cbe
00000020: fd7e 03bd 8a76 64be ca48 49bd 5ec3 83bc
00000030: a6d3 c63e cd5e dd3d 8573 fc3e 83ac abbd
00000040: 5c2d cfbe 518b bd3e f732 19bf 8e61 37be
00000050: ac5b 603e 3b63 2d3d 723a d73e cd9a 803d
00000060: ab2a 5ebf 720f a5bb 6c1d d7be 6de6 093d
00000070: 6d44 9e3f 494a e7bd 3612 ddbf 909e c3be
00000080: c3f8 193d f5e1 cebd b447 f5bd 5932 85be
00000090: 490c 833e 1fae f43e 4588 023e dac6 d03d
000000a0: 9086 5ec0 ca57 b43f f6fa 7e3e ef4c 61be
000000b0: 415e 413f bd92 c9bd c6a8 683e 8a1e 823e
000000c0: a6de c8bf d44b 783e 98eb 51be c64a 643d
000000d0: 94e0 a33d 9e80 303e 0e23 3fbe 8872 463e
000000e0: 5835 7f3d 4820 88be 8e94 32c0 7c53 d0bd
000000f0: 6257 cebf ca91 363e f037 5ebe 9090 44be
00000100: 9482 873e 7bff 823f cfe6 4e3e 2b32 b23c
00000110: 65c4 283e 0c0e a7be d2a1 c9bc 77ee 99bf
00000120: 12cf 45be 30c0 973e e78c 823e 7ca0 833e
00000130: 0a70 b9be 658c d73d e48c b53e 9aa3 80bf
00000140: 8e7c 2f3f b902 86be 7a72 7a3e c348 e0bc
00000150: a204 c6be f09b d1bd ede6 a9be 5222 cbbd
00000160: 6447 0f3e 0c55 ef3d 3826 89bf 0e5c 9fbd
00000170: a839 9bbf b817 313e 2d3b e13f 11d7 90bf
00000180: 78c5 613d defa 263d 3309 3ebe a6ae 82bd
00000190: 7a61 fabe 2529 e6bb 172d 26bd 43b9 b3be
000001a0: 1bcc c63e d137 aabf e06d 53be 7905 03be
000001b0: 21eb d3be fed6 973e d624 e5bd 5932 61be
000001c0: 5369 0d40 c0c5 08be bf3e f3bf 1d3b ab3d
000001d0: d58c bd3d d3f3 28be 13a6 28be eb9f 94be
000001e0: 7e2d 56bf c598 abbe 6f15 0340 6522 c73e
000001f0: 7b92 873f 25ed a3bd 847b a23d b08f 0b3e
00000200: 982a b1bf 4b79 d0be f6e7 58be 38a5 0a3f
00000210: eaed 173b 6bdf 683e 71f4 873e 86e2 8c3f
00000220: 1c7b a039 cec6 3fbe d708 1ebe a73c 33be
00000230: f356 3fbd 9f8b 6bbe 5be8 0ec0 9db6 883f
00000240: 2e90 85bf e071 97bf 8721 dbbc 8ade 90bd
00000250: 7e0c 2b3e 3d03 72be a586 e3be 78ca 153e
00000260: 4d6f 25bf 093f 123e 4763 853f 980c e83e
00000270: 41a3 8dbe 86c4 9abe aee5 9ebe 0a17 893f
00000280: 595e d43c 93a9 63be b517 8c3e ca17 903d
00000290: da35 2cbe 4ca1 a0bf ea35 a53d 995b 423c
000002a0: 7b1b a53e c3cb 95be 1f90 913c a255 2a3d
000002b0: 07d7 ee3d 0ceb 26bf b52f cfbd 9ec3 80be
000002c0: f85e 34c0 93e4 393e 1e6d ef3f 216c e63d
000002d0: 5e73 b23e 65fe 663e daf9 013e 76d6 a43e
000002e0: 16ee 093f 720a ad3e fd5f 4dbe 2c71 8ebe
000002f0: 87db 413d c81c dc3d 76e6 163a d883 87be

out.bias f4 [3]
-1.2705185 1.3300191 -0.81813693
00000000: 5aa0 a2bf 113e aa3f 6c71 51bf
